…
________________________________________________\n"," Layer (type)                   Output Shape         Param #     Connected to                     \n","==================================================================================================\n"," input_8 (InputLayer)           [(None, 160, 160, 3  0           []                               \n","                                )]                                                                \n","                                                                                                  \n"," Conv1 (Conv2D)                 (None, 80, 80, 32)   864         ['input_8[0][0]']                \n","                                                                                                  \n"," bn_Conv1 (BatchNormalization)  (None, 80, 80, 32)   128         ['Conv1[0][0]']                  \n","                                                                                                  \n"," Conv1_relu (ReLU)              (None, 80, 80, 32)   0           ['bn_Conv1[0][0]']               \n","                                                                                                  \n"," expanded_conv_depthwise (Depth  (None, 80, 80, 32)  288         ['Conv1_relu[0][0]']             \n"," wiseConv2D)                                                                                      \n","                                                                                                  \n"," expanded_conv_depthwise_BN (Ba  (None, 80, 80, 32)  128         ['expanded_conv_depthwise[0][0]']\n"," tchNormalization)                                                                                \n","                                                                                                  \n"," expanded_conv_depthwise_relu (  (None, 80, 80, 32)  0           ['expanded_conv_depthwise_BN[0][0\n"," ReLU)                                                           ]']                              \n","                                                                                                  \n"," expanded_conv_project (Conv2D)  (None, 80, 80, 16)  512         ['expanded_conv_depthwise_relu[0]\n","                                                                 [0]']                            \n","                                                                                                  \n"," expanded_conv_project_BN (Batc  (None, 80, 80, 16)  64          ['expanded_conv_project[0][0]']  \n"," hNormalization)                                                                                  \n","                                                                                                  \n"," block_1_expand (Conv2D)        (None, 80, 80, 96)   1536        ['expanded_conv_project_BN[0][0]'\n","                                                                 ]                                \n","                                                                                                  \n"," block_1_expand_BN (BatchNormal  (None, 80, 80, 96)  384         ['block_1_expand[0][0]']         \n"," ization)                                                                                         \n","                                                                                                  \n"," block_1_expand_relu (ReLU)     (None, 80, 80, 96)   0           ['block_1_expand_BN[0][0]']      \n","                                                                                                  \n"," block_1_pad (ZeroPadding2D)    (None, 81, 81, 96)   0           ['block_1_expand_relu[0][0]']    \n","                                                                                                  \n"," block_1_depthwise (DepthwiseCo  (None, 40, 40, 96)  864         ['block_1_pad[0][0]']            \n"," nv2D)                                                                                            \n","                                                                                                  \n"," block_1_depthwise_BN (BatchNor  (None, 40, 40, 96)  384         ['block_1_depthwise[0][0]']      \n"," malization)                                                                                      \n","                                                                                                  \n"," block_1_depthwise_relu (ReLU)  (None, 40, 40, 96)   0           ['block_1_depthwise_BN[0][0]']   \n","                                                                                                  \n"," block_1_project (Conv2D)       (None, 40, 40, 24)   2304        ['block_1_depthwise_relu[0][0]'] \n","                                                                                                  \n"," block_1_project_BN (BatchNorma  (None, 40, 40, 24)  96          ['block_1_project[0][0]']        \n"," lization)                                                                                        \n","                                                                                                  \n"," block_2_expand (Conv2D)        (None, 40, 40, 144)  3456        ['block_1_project_BN[0][0]']     \n","                                                                                                  \n"," block_2_expand_BN (BatchNormal  (None, 40, 40, 144)  576        ['block_2_expand[0][0]']         \n"," ization)                                                                                         \n","                                                                                                  \n"," block_2_expand_relu (ReLU)     (None, 40, 40, 144)  0           ['block_2_expand_BN[0][0]']      \n","                                                                                                  \n"," block_2_depthwise (DepthwiseCo  (None, 40, 40, 144)  1296       ['block_2_expand_relu[0][0]']    \n"," nv2D)                                                                                            \n","                                                                                                  \n"," block_2_depthwise_BN (BatchNor  (None, 40, 40, 144)  576        ['block_2_depthwise[0][0]']      \n"," malization)                                                                                      \n","                                                                                                  \n"," block_2_depthwise_relu (ReLU)  (None, 40, 40, 144)  0           ['block_2_depthwise_BN[0][0]']   \n","                                                                                                  \n"," block_2_project (Conv2D)       (None, 40, 40, 24)   3456        ['block_2_depthwise_relu[0][0]'] \n","                                                                                                  \n"," block_2_project_BN (BatchNorma  (None, 40, 40, 24)  96          ['block_2_project[0][0]']        \n"," lization)                                                                                        \n","                                                                                                  \n"," block_2_add (Add)              (None, 40, 40, 24)   0           ['block_1_project_BN[0][0]',     \n","                                                                  'block_2_project_BN[0][0]']     \n","                                                                                                  \n"," block_3_expand (Conv2D)        (None, 40, 40, 144)  3456        ['block_2_add[0][0]']            \n","                                                                                                  \n"," block_3_expand_BN (BatchNormal  (None, 40, 40, 144)  576        ['block_3_expand[0][0]']         \n"," ization)                                                                                         \n","                                                                                                  \n"," block_3_expand_relu (ReLU)     (None, 40, 40, 144)  0           ['block_3_expand_BN[0][0]']      \n","                                                                                                  \n"," block_3_pad (ZeroPadding2D)    (None, 41, 41, 144)  0           ['block_3_expand_relu[0][0]']    \n","                                                                                                  \n"," block_3_depthwise (DepthwiseCo  (None, 20, 20, 144)  1296       ['block_3_pad[0][0]']            \n"," nv2D)                                                                                            \n","                                                                                                  \n"," block_3_depthwise_BN (BatchNor  (None, 20, 20, 144)  576        ['block_3_depthwise[0][0]']      \n"," malization)                                                                                      \n","                                                                                                  \n"," block_3_depthwise_relu (ReLU)  (None, 20, 20, 144)  0           ['block_3_depthwise_BN[0][0]']   \n","                                                                                                  \n"," block_3_project (Conv2D)       (None, 20, 20, 32)   4608        ['block_3_depthwise_relu[0][0]'] \n","                                                                                                  \n"," block_3_project_BN (BatchNorma  (None, 20, 20, 32)  128         ['block_3_project[0][0]']        \n"," lization)                                                                                        \n","                                                                                                  \n"," block_4_expand (Conv2D)        (None, 20, 20, 192)  6144        ['block_3_project_BN[0][0]']     \n","                                                                                                  \n"," block_4_expand_BN (BatchNormal  (None, 20, 20, 192)  768        ['block_4_expand[0][0]']         \n"," ization)                                                                                         \n","                                                                                                  \n"," block_4_expand_relu (ReLU)     (None, 20, 20, 192)  0           ['block_4_expand_BN[0][0]']      \n","                                                                                                  \n"," block_4_depthwise (DepthwiseCo  (None, 20, 20, 192)  1728       ['block_4_expand_relu[0][0]']    \n"," nv2D)                                                                                            \n","                                                                                                  \n"," block_4_depthwise_BN (BatchNor  (None, 20, 20, 192)  768        ['block_4_depthwise[0][0]']      \n"," malization)                                                                                      \n","                                                                                                  \n"," block_4_depthwise_relu (ReLU)  (None, 20, 20, 192)  0           ['block_4_depthwise_BN[0][0]']   \n","                                                                                                  \n"," block_4_project (Conv2D)       (None, 20, 20, 32)   6144        ['block_4_depthwise_relu[0][0]'] \n","                                                                                                  \n"," block_4_project_BN (BatchNorma  (None, 20, 20, 32)  128         ['block_4_project[0][0]']        \n"," lization)                                                                                        \n","                                                                                                  \n"," block_4_add (Add)              (None, 20, 20, 32)   0           ['block_3_project_BN[0][0]',     \n","                                                                  'block_4_project_BN[0][0]']     \n","                                                                                                  \n"," block_5_expand (Conv2D)        (None, 20, 20, 192)  6144        ['block_4_add[0][0]']            \n","                                                                                                  \n"," block_5_expand_BN (BatchNormal  (None, 20, 20, 192)  768        ['block_5_expand[0][0]']         \n"," ization)                                                                                         \n","                                                                                                  \n"," block_5_expand_relu (ReLU)     (None, 20, 20, 192)  0           ['block_5_expand_BN[0][0]']      \n","                                                                                                  \n"," block_5_depthwise (DepthwiseCo  (None, 20, 20, 192)  1728       ['block_5_expand_relu[0][0]']    \n"," nv2D)                                                                                            \n","                                                                                                  \n"," block_5_depthwise_BN (BatchNor  (None, 20, 20, 192)  768        ['block_5_depthwise[0][0]']      \n"," malization)                                                                                      \n","                                                                                                  \n"," block_5_depthwise_relu (ReLU)  (None, 20, 20, 192)  0           ['block_5_depthwise_BN[0][0]']   \n","                                                                                                  \n"," block_5_project (Conv2D)       (None, 20, 20, 32)   6144        ['block_5_depthwise_relu[0][0]'] \n","                                                                                                  \n"," block_5_project_BN (BatchNorma  (None, 20, 20, 32)  128         ['block_5_project[0][0]']        \n"," lization)                                                                                        \n","                                                                                                  \n"," block_5_add (Add)              (None, 20, 20, 32)   0           ['block_4_add[0][0]',            \n","                                                                  'block_5_project_BN[0][0]']     \n","                                                                                                  \n"," block_6_expand (Conv2D)        (None, 20, 20, 192)  6144        ['block_5_add[0][0]']            \n","                                                                                                  \n"," block_6_expand_BN (BatchNormal  (None, 20, 20, 192)  768        ['block_6_expand[0][0]']         \n"," ization)                                                                                         \n","                                                                                                  \n"," block_6_expand_relu (ReLU)     (None, 20, 20, 192)  0           ['block_6_expand_BN[0][0]']      \n","                                                                                                  \n"," block_6_pad (ZeroPadding2D)    (None, 21, 21, 192)  0           ['block_6_expand_relu[0][0]']    \n","                                                                                                  \n"," block_6_depthwise (DepthwiseCo  (None, 10, 10, 192)  1728       ['block_6_pad[0][0]']            \n"," nv2D)                                                                                            \n","                                                                                                  \n"," block_6_depthwise_BN (BatchNor  (None, 10, 10, 192)  768        ['block_6_depthwise[0][0]']      \n"," malization)                                                                                      \n","                                                                                                  \n"," block_6_depthwise_relu (ReLU)  (None, 10, 10, 192)  0           ['block_6_depthwise_BN[0][0]']   \n","                                                                                                  \n"," block_6_project (Conv2D)       (None, 10, 10, 64)   12288       ['block_6_depthwise_relu[0][0]'] \n","                                                                                                  \n"," block_6_project_BN (BatchNorma  (None, 10, 10, 64)  256         ['block_6_project[0][0]']        \n"," lization)                                                                                        \n","                                                                                                  \n"," block_7_expand (Conv2D)        (None, 10, 10, 384)  24576       ['block_6_project_BN[0][0]']     \n","                                                                                                  \n"," block_7_expand_BN (BatchNormal  (None, 10, 10, 384)  1536       ['block_7_expand[0][0]']         \n"," ization)                                                                                         \n","                                                                                                  \n"," block_7_expand_relu (ReLU)     (None, 10, 10, 384)  0           ['block_7_expand_BN[0][0]']      \n","                                                                                                  \n"," block_7_depthwise (DepthwiseCo  (None, 10, 10, 384)  3456       ['block_7_expand_relu[0][0]']    \n"," nv2D)                                                                                            \n","                                                                                                  \n"," block_7_depthwise_BN (BatchNor  (None, 10, 10, 384)  1536       ['block_7_depthwise[0][0]']      \n"," malization)                                                                                      \n","                                                                                                  \n"," block_7_depthwise_relu (ReLU)  (None, 10, 10, 384)  0           ['block_7_depthwise_BN[0][0]']   \n","                                                                                                  \n"," block_7_project (Conv2D)       (None, 10, 10, 64)   24576       ['block_7_depthwise_relu[0][0]'] \n","                                                                                                  \n"," block_7_project_BN (BatchNorma  (None, 10, 10, 64)  256         ['block_7_project[0][0]']        \n"," lization)                                                                                        \n","                                                                                                  \n"," block_7_add (Add)              (None, 10, 10, 64)   0           ['block_6_project_BN[0][0]',     \n","                                                                  'block_7_project_BN[0][0]']     \n","                                                                                                  \n"," block_8_expand (Conv2D)        (None, 10, 10, 384)  24576       ['block_7_add[0][0]']            \n","                                                                                                  \n"," block_8_expand_BN (BatchNormal  (None, 10, 10, 384)  1536       ['block_8_expand[0][0]']         \n"," ization)                                                                                         \n","                                                                                                  \n"," block_8_expand_relu (ReLU)     (None, 10, 10, 384)  0           ['block_8_expand_BN[0][0]']      \n","                                                                                                  \n"," block_8_depthwise (DepthwiseCo  (None, 10, 10, 384)  3456       ['block_8_expand_relu[0][0]']    \n"," nv2D)                                                                                            \n","                                                                                                  \n"," block_8_depthwise_BN (BatchNor  (None, 10, 10, 384)  1536       ['block_8_depthwise[0][0]']      \n"," malization)                                                                                      \n","                                                                                                  \n"," block_8_depthwise_relu (ReLU)  (None, 10, 10, 384)  0           ['block_8_depthwise_BN[0][0]']   \n","                                                                                                  \n"," block_8_project (Conv2D)       (None, 10, 10, 64)   24576       ['block_8_depthwise_relu[0][0]'] \n","                                                                                                  \n"," block_8_project_BN (BatchNorma  (None, 10, 10, 64)  256         ['block_8_project[0][0]']        \n"," lization)                                                                                        \n","                                                                                                  \n"," block_8_add (Add)              (None, 10, 10, 64)   0           ['block_7_add[0][0]',            \n","                                                                  'block_8_project_BN[0][0]']     \n","                                                                                                  \n"," block_9_expand (Conv2D)        (None, 10, 10, 384)  24576       ['block_8_add[0][0]']            \n","                                                                                                  \n"," block_9_expand_BN (BatchNormal  (None, 10, 10, 384)  1536       ['block_9_expand[0][0]']         \n"," ization)                                                                                         \n","                                                                                                  \n"," block_9_expand_relu (ReLU)     (None, 10, 10, 384)  0           ['block_9_expand_BN[0][0]']      \n","                                                                                                  \n"," block_9_depthwise (DepthwiseCo  (None, 10, 10, 384)  3456       ['block_9_expand_relu[0][0]']    \n"," nv2D)                                                                                            \n","                                                                                                  \n"," block_9_depthwise_BN (BatchNor  (None, 10, 10, 384)  1536       ['block_9_depthwise[0][0]']      \n"," malization)                                                                                      \n","                                                                                                  \n"," block_9_depthwise_relu (ReLU)  (None, 10, 10, 384)  0           ['block_9_depthwise_BN[0][0]']   \n","                                                                                                  \n"," block_9_project (Conv2D)       (None, 10, 10, 64)   24576       ['block_9_depthwise_relu[0][0]'] \n","                                                                                                  \n"," block_9_project_BN (BatchNorma  (None, 10, 10, 64)  256         ['block_9_project[0][0]']        \n"," lization)                                                                                        \n","                                                                                                  \n"," block_9_add (Add)              (None, 10, 10, 64)   0           ['block_8_add[0][0]',            \n","                                                                  'block_9_project_BN[0][0]']     \n","                                                                                                  \n"," block_10_expand (Conv2D)       (None, 10, 10, 384)  24576       ['block_9_add[0][0]']            \n","                                                                                                  \n"," block_10_expand_BN (BatchNorma  (None, 10, 10, 384)  1536       ['block_10_expand[0][0]']        \n"," lization)                                                                                        \n","                                                                                                  \n"," block_10_expand_relu (ReLU)    (None, 10, 10, 384)  0           ['block_10_expand_BN[0][0]']     \n","                                                                                                  \n"," block_10_depthwise (DepthwiseC  (None, 10, 10, 384)  3456       ['block_10_expand_relu[0][0]']   \n"," onv2D)                                                                                           \n","                                                                                                  \n"," block_10_depthwise_BN (BatchNo  (None, 10, 10, 384)  1536       ['block_10_depthwise[0][0]']     \n"," rmalization)                                                                                     \n","                                                                                                  \n"," block_10_depthwise_relu (ReLU)  (None, 10, 10, 384)  0          ['block_10_depthwise_BN[0][0]']  \n","                                                                                                  \n"," block_10_project (Conv2D)      (None, 10, 10, 96)   36864       ['block_10_depthwise_relu[0][0]']\n","                                                                                                  \n"," block_10_project_BN (BatchNorm  (None, 10, 10, 96)  384         ['block_10_project[0][0]']       \n"," alization)                                                                                       \n","                                                                                                  \n"," block_11_expand (Conv2D)       (None, 10, 10, 576)  55296       ['block_10_project_BN[0][0]']    \n","                                                                                                  \n"," block_11_expand_BN (BatchNorma  (None, 10, 10, 576)  2304       ['block_11_expand[0][0]']        \n"," lization)                                                                                        \n","                                                                                                  \n"," block_11_expand_relu (ReLU)    (None, 10, 10, 576)  0           ['block_11_expand_BN[0][0]']     \n","                                                                                                  \n"," block_11_depthwise (DepthwiseC  (None, 10, 10, 576)  5184       ['block_11_expand_relu[0][0]']   \n"," onv2D)                                                                                           \n","                                                                                                  \n"," block_11_depthwise_BN (BatchNo  (None, 10, 10, 576)  2304       ['block_11_depthwise[0][0]']     \n"," rmalization)                                                                                     \n","                                                                                                  \n"," block_11_depthwise_relu (ReLU)  (None, 10, 10, 576)  0          ['block_11_depthwise_BN[0][0]']  \n","                                                                                                  \n"," block_11_project (Conv2D)      (None, 10, 10, 96)   55296       ['block_11_depthwise_relu[0][0]']\n","                                                                                                  \n"," block_11_project_BN (BatchNorm  (None, 10, 10, 96)  384         ['block_11_project[0][0]']       \n"," alization)                                                                                       \n","                                                                                                  \n"," block_11_add (Add)             (None, 10, 10, 96)   0           ['block_10_project_BN[0][0]',    \n","                                                                  'block_11_project_BN[0][0]']    \n","                                                                                                  \n"," block_12_expand (Conv2D)       (None, 10, 10, 576)  55296       ['block_11_add[0][0]']           \n","                                                                                                  \n"," block_12_expand_BN (BatchNorma  (None, 10, 10, 576)  2304       ['block_12_expand[0][0]']        \n"," lization)                                                                                        \n","                                                                                                  \n"," block_12_expand_relu (ReLU)    (None, 10, 10, 576)  0           ['block_12_expand_BN[0][0]']     \n","                                                                                                  \n"," block_12_depthwise (DepthwiseC  (None, 10, 10, 576)  5184       ['block_12_expand_relu[0][0]']   \n"," onv2D)                                                                                           \n","                                                                                                  \n"," block_12_depthwise_BN (BatchNo  (None, 10, 10, 576)  2304       ['block_12_depthwise[0][0]']     \n"," rmalization)                                                                                     \n","                                                                                                  \n"," block_12_depthwise_relu (ReLU)  (None, 10, 10, 576)  0          ['block_12_depthwise_BN[0][0]']  \n","                                                                                                  \n"," block_12_project (Conv2D)      (None, 10, 10, 96)   55296       ['block_12_depthwise_relu[0][0]']\n","                                                                                                  \n"," block_12_project_BN (BatchNorm  (None, 10, 10, 96)  384         ['block_12_project[0][0]']       \n"," alization)                                                                                       \n","                                                                                                  \n"," block_12_add (Add)             (None, 10, 10, 96)   0           ['block_11_add[0][0]',           \n","                                                                  'block_12_project_BN[0][0]']    \n","                                                                                                  \n"," block_13_expand (Conv2D)       (None, 10, 10, 576)  55296       ['block_12_add[0][0]']           \n","                                                                                                  \n"," block_13_expand_BN (BatchNorma  (None, 10, 10, 576)  2304       ['block_13_expand[0][0]']        \n"," lization)                                                                                        \n","                                                                                                  \n"," block_13_expand_relu (ReLU)    (None, 10, 10, 576)  0           ['block_13_expand_BN[0][0]']     \n","                                                                                                  \n"," block_13_pad (ZeroPadding2D)   (None, 11, 11, 576)  0           ['block_13_expand_relu[0][0]']   \n","                                                                                                  \n"," block_13_depthwise (DepthwiseC  (None, 5, 5, 576)   5184        ['block_13_pad[0][0]']           \n"," onv2D)                                                                                           \n","                                                                                                  \n"," block_13_depthwise_BN (BatchNo  (None, 5, 5, 576)   2304        ['block_13_depthwise[0][0]']     \n"," rmalization)                                                                                     \n","                                                                                                  \n"," block_13_depthwise_relu (ReLU)  (None, 5, 5, 576)   0           ['block_13_depthwise_BN[0][0]']  \n","                                                                                                  \n"," block_13_project (Conv2D)      (None, 5, 5, 160)    92160       ['block_13_depthwise_relu[0][0]']\n","                                                                                                  \n"," block_13_project_BN (BatchNorm  (None, 5, 5, 160)   640         ['block_13_project[0][0]']       \n"," alization)                                                                                       \n","                                                                                                  \n"," block_14_expand (Conv2D)       (None, 5, 5, 960)    153600      ['block_13_project_BN[0][0]']    \n","                                                                                                  \n"," block_14_expand_BN (BatchNorma  (None, 5, 5, 960)   3840        ['block_14_expand[0][0]']        \n"," lization)                                                                                        \n","                                                                                                  \n"," block_14_expand_relu (ReLU)    (None, 5, 5, 960)    0           ['block_14_expand_BN[0][0]']     \n","                                                                                                  \n"," block_14_depthwise (DepthwiseC  (None, 5, 5, 960)   8640        ['block_14_expand_relu[0][0]']   \n"," onv2D)                                                                                           \n","                                                                                                  \n"," block_14_depthwise_BN (BatchNo  (None, 5, 5, 960)   3840        ['block_14_depthwise[0][0]']     \n"," rmalization)                                                                                     \n","                                                                                                  \n"," block_14_depthwise_relu (ReLU)  (None, 5, 5, 960)   0           ['block_14_depthwise_BN[0][0]']  \n","                                                                                                  \n"," block_14_project (Conv2D)      (None, 5, 5, 160)    153600      ['block_14_depthwise_relu[0][0]']\n","                                                                                                  \n"," block_14_project_BN (BatchNorm  (None, 5, 5, 160)   640         ['block_14_project[0][0]']       \n"," alization)                                                                                       \n","                                                                                                  \n"," block_14_add (Add)             (None, 5, 5, 160)    0           ['block_13_project_BN[0][0]',    \n","                                                                  'block_14_project_BN[0][0]']    \n","                                                                                                  \n"," block_15_expand (Conv2D)       (None, 5, 5, 960)    153600      ['block_14_add[0][0]']           \n","                                                                                                  \n"," block_15_expand_BN (BatchNorma  (None, 5, 5, 960)   3840        ['block_15_expand[0][0]']        \n"," lization)                                                                                        \n","                                                                                                  \n"," block_15_expand_relu (ReLU)    (None, 5, 5, 960)    0           ['block_15_expand_BN[0][0]']     \n","                                                                                                  \n"," block_15_depthwise (DepthwiseC  (None, 5, 5, 960)   8640        ['block_15_expand_relu[0][0]']   \n"," onv2D)                                                                                           \n","                                                                                                  \n"," block_15_depthwise_BN (BatchNo  (None, 5, 5, 960)   3840        ['block_15_depthwise[0][0]']     \n"," rmalization)                                                                                     \n","                                                                                                  \n"," block_15_depthwise_relu (ReLU)  (None, 5, 5, 960)   0           ['block_15_depthwise_BN[0][0]']  \n","                                                                                                  \n"," block_15_project (Conv2D)      (None, 5, 5, 160)    153600      ['block_15_depthwise_relu[0][0]']\n","                                                                                                  \n"," block_15_project_BN (BatchNorm  (None, 5, 5, 160)   640         ['block_15_project[0][0]']       \n"," alization)                                                                                       \n","                                                                                                  \n"," block_15_add (Add)             (None, 5, 5, 160)    0           ['block_14_add[0][0]',           \n","                                                                  'block_15_project_BN[0][0]']    \n","                                                                                                  \n"," block_16_expand (Conv2D)       (None, 5, 5, 960)    153600      ['block_15_add[0][0]']           \n","                                                                                                  \n"," block_16_expand_BN (BatchNorma  (None, 5, 5, 960)   3840        ['block_16_expand[0][0]']        \n"," lization)                                                                                        \n","                                                                                                  \n"," block_16_expand_relu (ReLU)    (None, 5, 5, 960)    0           ['block_16_expand_BN[0][0]']     \n","                                                                                                  \n"," block_16_depthwise (DepthwiseC  (None, 5, 5, 960)   8640        ['block_16_expand_relu[0][0]']   \n"," onv2D)                                                                                           \n","                                                                                                  \n"," block_16_depthwise_BN (BatchNo  (None, 5, 5, 960)   3840        ['block_16_depthwise[0][0]']     \n"," rmalization)                                                                                     \n","                                                                                                  \n"," block_16_depthwise_relu (ReLU)  (None, 5, 5, 960)   0           ['block_16_depthwise_BN[0][0]']  \n","                                                                                                  \n"," block_16_project (Conv2D)      (None, 5, 5, 320)    307200      ['block_16_depthwise_relu[0][0]']\n","                                                                                                  \n"," block_16_project_BN (BatchNorm  (None, 5, 5, 320)   1280        ['block_16_project[0][0]']       \n"," alization)                                                                                       \n","                                                                                                  \n"," Conv_1 (Conv2D)                (None, 5, 5, 1280)   409600      ['block_16_project_BN[0][0]']    \n","                                                                                                  \n"," Conv_1_bn (BatchNormalization)  (None, 5, 5, 1280)  5120        ['Conv_1[0][0]']                 \n","                                                                                                  \n"," out_relu (ReLU)                (None, 5, 5, 1280)   0           ['Conv_1_bn[0][0]']              \n","                                                                                                  \n","==================================================================================================\n","Total params: 2,257,984\n","Trainable params: 2,223,872\n","Non-trainable params: 34,112\n","____________________________________________________
…
psed":22,"user":{"displayName":"Arthur Zem de Souza","userId":"17890008029854150942"}},"outputId":"03aa7b00-ca8b-41d1-d152-8bd8b7750cb9"},"outputs":[{"output_type":"stream","name":"stdout","text":["Model: \"model_7\"\n","_________________________________________________________________\n"," Layer (type)                Output Shape              Param #   \n","=================================================================\n"," input_10 (InputLayer)       [(None, 160, 160, 3)]     0         \n","                                                                 \n"," sequential_2 (Sequential)   (None, 160, 160, 3)       0         \n","                                                                 \n"," tf.math.truediv_7 (TFOpLamb  (None, 160, 160, 3)      0         \n"," da)                                                             \n","                                                                 \n"," tf.math.subtract_7 (TFOpLam  (None, 160, 160, 3)      0         \n"," bda)                                                            \n","                                                                 \n"," mobilenetv2_1.00_160 (Funct  (None, 5, 5, 1280)       2257984   \n"," ional)                                                          \n","                                                                 \n"," global_average_pooling2d_2   (None, 1280)             0         \n"," (GlobalAveragePooling2D)                                        \n","                                                                 \n"," dropout_7 (Dropout)         (None, 1280)              0         \n","                                                                 \n"," dense_18 (Dense)            (None, 1280)              1639680   \n","                                                                 \n"," dense_17 (Dense)            (None, 1)                 1281      \n","                                                                 \n","=================================================================\n","Total params: 3,898,945\n","Trainable params: 1,640,961\n","Non-trainable params: 2,257,984\n","_________________________________________________________________\n"]}],"source":["model.summary()"]},{"cell_type":"markdown","metadata":{"id":"lxOcmVr0y
…
